models/Sequential_Basemodel3/best_CtoY_model.pth (torch, 92744 bytes, 2 tensors)

weight f4 [200, 112]
00000000: b710 cbbd bef3 c13f ea30 69be 6302 ebbd
00000010: 5d73 01be 3dd5 b5be 9a4b 5fbc 4f13 6dbe
00000020: 1c03 28be 2db1 c5bc 4da8 4cbe c958 b0be
00000030: 7eb3 78bc e86e 93be ae0d 50be f048 adbd
00000040: 266d 9abd de7b d43f f7f3 98bd ea40 d7bd
00000050: 64a0 99be bfd9 9abd aaae 4b3f a44f 2cbb
00000060: 7193 86bc f952 1fbe be2b 74be d2f3 31bc
00000070: 93d7 26be 57c8 cfbd b38e 8abc 2dba 08be
00000080: c764 dcbd 9f35 8abe abf3 82be 9962 d9bd
00000090: 3d5e d0bc bac8 adbc f971 b9be 3c15 86bd
000000a0: 267a 0ebe c8b9 babd f5bb fcbd 4a94 94be
000000b0: af6a dfbc 70dd 42bd fee0 53bd c3a8 93be
000000c0: 8827 bcbe 11a0 8abc 15fe 1f3f ad36 923f
000000d0: 8732 bcbe 5bcd 01bd 76c9 c2bd 24c3 5dbd
000000e0: f0cd 7dbc 2b1d b3be 1c03 4ebe c073 b6bd
000000f0: c06d 53be cc80 f4be 7a91 4bbe 658c dcbc
00000100: ab82 c1bd d3c0 f1bd bef2 45bc 6182 3abe
00000110: 2884 c1be 6b42 aebc 9850 30bc 1278 e7bd
00000120: dd20 b7bd 48ac cabd 0375 97be 323a 02bd
00000130: 0578 8bbe c4e1 dbbd 7e6d a1be 875d 983f
00000140: 74c6 dabd 5de5 1cbe 6d9b a0be a745 763f
00000150: 9ef1 6dbc 37ba bebd dbdb 7b3f 854c acbc
00000160: 5562 91bd b9e2 2b3f 3235 ebbd f079 49be
00000170: cb81 78bd 7613 66be 45da 56be 684b 55bc
00000180: 7ccc 9fbe 6030 afbe 6e29 82bd 10c4 a0bd
00000190: 8d86 03bf 2934 48bd 5bcd 01bd 16c3 d6bd
000001a0: 2ce7 d4bd 675f 4dbc 8925 b4be 5c4a 40be
000001b0: 1847 07bf 9238 26bc cd65 11bd d637 35be
000001c0: 0aa7 b9bd 70de 553f 228e 4dbe d18a 97bd
000001d0: ea96 27be 7fc9 9fbe 3abc a7bc 4e3b bcbe
000001e0: 20b1 7dbe f3a0 32bd 3eb4 20be e945 b6be
000001f0: 8b94 b1bc 0f1c 2e3f 8c39 b4be 1505 2bbd
00000200: a8f8 48bc 235f 54bd 2007 abbc 4a44 83bd
00000210: c5d2 993e bb5c 40bd b012 9a3e 62fc babc
00000220: a12b 42bc 2176 6e3f 23ae bcbe ada3 b3bb
00000230: 0aad 4fbe fcd7 a6be 9392 d9bc 2cda 9dbd
00000240: 8397 09be cafc 07be 910f 9bbe 2e4a adbe
00000250: 96d6 d0bc 4143 febc e100 9cbe 3f31 6abc
00000260: 68fa a6bc db48 babc bd85 7ebd 9b24 a33e
00000270: 5ff1 14bd 1e00 8ebb 746e 94bc 3297 0abe
00000280: 2755 ad3e bf73 97bc 2c9b cc3d c523 ba3e
00000290: 80c8 6fbe 6aaa 87bc f5fd b9bd 33b3 8cbc
000002a0: 8bf8 b4bc a729 86be a1ff 3a3f a464 a4bd
000002b0: ad8f a9bd 8f13 183f 06cf bfbe 06f3 e2bc
000002c0: 639f 65bd ade8 c9bc 6699 c3bb 08d3 3ebe
000002d0: 2aa8 043f bd3c a7bc 5b13 19bc 725f 78bc
000002e0: f755 b5bc 2521 5bbd 791c 9f3e fd48 1bbd
000002f0: 54aa 36be 913d 18be 6c52 88be 75fa f63e
00000300: e5fb 0ebd ced7 12bd cc10 7abe 577c c33e
00000310: a9a5 0cbd 9af5 d9bc 3692 08bf 08f8 1dbd
00000320: 977b eebd b7f6 413e 1d4a 17be 35b4 90be
00000330: 6414 7bbc 132c 4d3f bb20 0b3f 08ef 9abc
00000340: fa55 35be 2037 70be d0d9 f5bc 65ed 51bd
00000350: 2f29 b9be c9a6 883f 6aaa 87bc 07da c0bd
00000360: 0ed9 59bd 7f06 a9bc 973c 8bbe d9ae 3e3f
00000370: 22d3 0f3f 3802 69bc d266 8ebd f759 cfbd
00000380: 6224 c7bd c503 723f 4f26 bfbe d1f9 95bd
00000390: 4ed4 a0bd c2a8 2f3f a6d0 18bd e324 bebe
000003a0: 0b9c d2bd 06f6 5cbd 768c 9abd 078f 273f
000003b0: 8190 28bd fd01 c0be 239f 2ebe 0900 63bd
000003c0: 104f c7bb 4b7b 5fbe db50 a7bd f310 70be
000003d0: c034 a3be 284c 22bd 59db 883e 5be4 c2bb
000003e0: 6c1b 2dbd a803 9bbd b1a6 e3be 7823 35bc
000003f0: 3e53 99be 1f8a b9bd 2bc7 84bd 60ce fcbd
-0.099152975 1.5152509 -0.22772565 -0.114750646 -0.12641664 -0.3551425 -0.013628865 -0.23151897
-0.16407436 -0.024132336 -0.19986077 -0.34442738 -0.015179513 -0.28795552 -0.20317718 -0.08461177
-0.0754035 1.6600301 -0.074684076 -0.10510428 -0.3000518 -0.07561063 0.7956339 -0.0026292587
-0.016427727 -0.15558995 -0.23844811 -0.010861354 -0.16293173 -0.10145634 -0.016913747 -0.1335227
-0.10761409 -0.26994035 -0.2557653 -0.10614509 -0.025435561 -0.021213878 -0.36219767 -0.06547019
-0.13913783 -0.09117466 -0.123405375 -0.29019386 -0.02727255 -0.04757446 -0.05172824 -0.28839692
-0.3674891 -0.016922029 0.62497073 1.1422936 -0.367573 -0.031689983 -0.09511082 -0.05414118
-0.015490994 -0.3498319 -0.20118374 -0.08908796 -0.20647335 -0.47754514 -0.19879714 -0.026922414
-0.09448751 -0.118043564 -0.0120818 -0.18213798 -0.3779614 -0.021271905 -0.010761403 -0.113021985
-0.08941815 -0.09896141 -0.2958146 -0.03179378 -0.27240005 -0.10736421 -0.31528848 1.1903542
-0.10682383 -0.1532187 -0.3136858 0.9620003 -0.014522938 -0.093128614 0.9838235 -0.021032581
-0.070988335 0.67142826 -0.114847556 -0.19675422 -0.060670655 -0.22468361 -0.209817 -0.0130184665
-0.31210697 -0.34216595 -0.06355558 -0.07849896 -0.51377183 -0.04887787 -0.031689983 -0.104864284
-0.10395655 -0.012534953 -0.35184887 -0.18778366 -0.52842855 -0.010145323 -0.035497475 -0.17697081
-0.09065063 0.8354254 -0.2007375 -0.07399524 -0.16366163 -0.31208417 -0.020475496 -0.36763996
-0.24774599 -0.043610524 -0.15693757 -0.35600212 -0.021677276 0.68011564 -0.35200155 -0.041752893
-0.0122663155 -0.051848542 -0.02087742 -0.064095095 0.30043617 -0.046963435 0.30092382 -0.022825424
-0.011851222 0.93149 -0.36851606 -0.005482158 -0.20280853 -0.32586658 -0.02655915 -0.077076286
-0.13436703 -0.13280025 -0.30285314 -0.33845657 -0.025492948 -0.031037929 -0.3046942 -0.014293968
-0.020383075 -0.022739818 -0.06213926 0.31863865 -0.036363002 -0.00433351 -0.018119074 -0.13534239
0.3385403 -0.01848781 0.09990534 0.36355415 -0.23416328 -0.016560752 -0.090816416 -0.017175293
-0.02209117 -0.26203653 0.7304631 -0.08027008 -0.08279357 0.59404844 -0.37462634 -0.027703773
-0.056060206 -0.024647081 -0.0059692143 -0.1863519 0.518191 -0.020414704 -0.009342994 -0.015159475
-0.022135718 -0.053498406 0.3107641 -0.037911404 -0.17838413 -0.14867236 -0.26625383 0.4823796
-0.034908194 -0.03585034 -0.2442047 0.381808 -0.034337673 -0.02660637 -0.533481 -0.03856662
-0.11644667 0.1894177 -0.14774366 -0.28262487 -0.015324686 0.80145377 0.5434682 -0.018912807
-0.17708579 -0.23458529 -0.030011088 -0.051251788 -0.36164233 1.0675899 -0.016560752 -0.094165854
-0.053185515 -0.02063298 -0.27194664 0.74485546 0.5618154 -0.01422172 -0.06953205 -0.10124581
-0.09723736 0.94537 -0.37333915 -0.07323039 -0.07852994 0.6861688 -0.037308358 -0.37137517
-0.10283669 -0.053945564 -0.07546322 0.6545262 -0.041153435 -0.37501517 -0.17052893 -0.055419955
-0.006082423 -0.21824376 -0.08169719 -0.23443966 -0.31876183 -0.03962341 0.2672985 -0.0059476322
-0.04226248 -0.07569057 -0.44463113 -0.01105582 -0.2994632 -0.09059548 -0.06483301 -0.123440504

bias f4 [200]
00000000: 78fa 1a3f c048 803d 63ea f73c eea6 fdbd
00000010: 7f43 6c3d 910a 443d 2fc1 b23c 03b5 ecbb
00000020: 16a8 aabe e6f9 c8be 45e8 d93c 498b 84bc
00000030: 9859 ecbd 692c 003e b326 8e3b 361e 1c3b
00000040: 3991 903e e2da 343f 2eb5 57be 5898 8abe
00000050: b139 12be a468 1f3e 0e61 97be 07d4 02be
00000060: aef4 01be 71bd 1cbe c977 bebe e769 00bd
00000070: d166 8ebe f660 26bc 6ea3 3ebe 45f2 613d
00000080: d2d7 aa3b 2748 22bd 4b24 263f 8422 ed3d
00000090: d86d cc3d 24e0 9dbd 934f a5bd 68bd a43d
000000a0: c464 21be 1b44 f2bd 421b 453d f570 633e
000000b0: cd13 7abc e8d9 103e 454d bcbd b510 16bd
000000c0: ff4d 0fbe 034f f0bc eeba 113f 78cc 473e
000000d0: 6bb6 563c ced3 123e ef0c 8abd 5a9a 913d
000000e0: ba4b 7ebd 4567 38be 7ada 1cbe 776c 2dbe
000000f0: 5715 07bd 43cf 31be 7f25 2cbe 50eb 0abe
00000100: 56ee 003e cfbe b7bd 77bf 273f 8160 563f
00000110: 72ed d33e 33ef 8b3f f0b3 7cbe be5b 753e
00000120: 3d5d c03d a298 1e3d cffd 143e 90a2 253d
00000130: c799 43be 1e60 5ebe d4d0 83bd 4544 353e
00000140: 61d7 11be 22c7 d73e c0da ed3d b417 b4bd
00000150: 294a 56bd 534d 2d3e 6bd1 593e cedf 013e
00000160: 0dda a73e 23cf 163e 0fdb 913d f2af 023d
00000170: 0d18 58bd 9752 26bd 6f97 53bc 770c ebbc
00000180: bedd 64be 029f 8ebe 4c8a 423e 5be6 9c3f
00000190: 3c9a 683e f827 a9be 5764 d13d 911a 3ebd
000001a0: 6a8a a23e 42a6 55be eecd adbd 8c39 47bd
000001b0: d2fa febd fe64 663c 9f15 8abe b43f 1bbe
000001c0: 00c5 a6bd 176f 8bbd 5516 393d 81ab e6bd
000001d0: 2d55 73be 65ce 99bd 9cc5 aa3d 84dd 323d
000001e0: 7492 7fbd a8b9 04be 497f 3abe 544f 3bbc
000001f0: c9e2 22be 203b 813b e73f 1fbe 7e8f dd3e
00000200: b314 f0bd a253 3abe a86b ad3d 8cbf 7c3c
00000210: e3a2 7bbd cd1b 8ebd 96d0 f23b 839e c5bd
00000220: 905f 063e 3b40 1bbe 7ef9 43bd e59d 1cbe
00000230: 868f 01be c902 25ba d0eb 653c 9c03 20be
00000240: 6b0e 6e3c c5ef 59bc 3ac8 24be 604b eeba
00000250: bedb 6ebd 3d58 353d 4190 15be f196 f2bd
00000260: ed4f b3bd 51b2 aabc ed8f 1ebe f66e 15be
00000270: 16fe 19bd ff49 edbc 6a7d f2bd f71f ddbc
00000280: c59c 11be e024 5d3e bab3 913e 6df4 1d3e
00000290: c943 96bd 40c6 e2bd f9d8 4d3d 2a86 1e3e
000002a0: 52c9 b8bd 8336 1f3e c865 e3bd a576 76bd
000002b0: 2402 eb3d 15ba b33e 12e2 04bd 88cb 77bc
000002c0: 2b85 20be 5c60 74be 8d12 27bd 5a06 43bc
000002d0: b13f 8cbd ece4 6b3d 3930 2cbe 68e0 9abd
000002e0: 6168 d0bd b960 93bd f3fa 0cbe 8e35 fdbd
000002f0: 90c8 c7bc 6d2e 27bd 9fd0 c2bd 1c94 6cbe
00000300: 079f 593c 4851 33bd a82b 39be 609b 34bd
00000310: df3d 33be a317 3e3c bde3 253d b525 56bd
0.60538435 0.06263876 0.030263131 -0.12385355 0.057681557 0.04786164 0.021820633 -0.0072237267
-0.33331364 -0.39253157 0.026600013 -0.016179698 -0.11540526 0.12516941 0.0043381094 0.0023821718
0.28235796 0.7064649 -0.21065208 -0.27069354 -0.1427982 0.15567261 -0.29566234 -0.12776195
-0.12690994 -0.15306641 -0.37200764 -0.031350996 -0.27812818 -0.010154953 -0.18617031 0.055162687
0.005213716 -0.03961959 0.6489913 0.11578849 0.099818885 -0.07708767 -0.08071818 0.08043939
-0.15761095 -0.11829396 0.0481217 0.22211058 -0.01526351 0.14145625 -0.091944255 -0.036637027
-0.13994597 -0.02933455 0.5692586 0.19511592 0.013105015 0.1433861 -0.06740748 0.07109518
-0.062083937 -0.18008144 -0.15317717 -0.16935907 -0.032979336 -0.1736422 -0.16811179 -0.13566327
0.12590918 -0.08971941 0.6552653 0.83741003 0.41392094 1.0932373 -0.24678016 0.23960778
0.09392784 0.03871978 0.14549945 0.040438235 -0.1910163 -0.21716353 -0.06436315 0.17701824
-0.14242317 0.42144114 0.11613989 -0.087935835 -0.05231682 0.16924028 0.21271293 0.12683031
0.32783547 0.14727454 0.0712186 0.031906076 -0.05275731 -0.040606108 -0.012914523 -0.028692467
-0.22350213 -0.27855688 0.18998069 1.2257799 0.22715086 -0.33038306 0.102242164 -0.046412054
0.31746227 -0.20864204 -0.084865436 -0.048638865 -0.12450184 0.014062164 -0.2696962 -0.1516102
-0.081430435 -0.06808298 0.045187313 -0.112631805 -0.2376296 -0.0751007 0.08338472 0.043668285
-0.062395528 -0.12961447 -0.18212618 -0.0114324875 -0.15906824 0.003943816 -0.1555172 0.43273538
-0.11722698 -0.18195966 0.084677994 0.015426528 -0.061434638 -0.06938896 0.0074101193 -0.09649374
0.13122392 -0.1516122 -0.047845356 -0.15294607 -0.12652406 -0.00062946655 0.014033273 -0.15626377
0.014529805 -0.013301794 -0.16092005 -0.0018180422 -0.05831503 0.044273604 -0.1460581 -0.11845196
-0.08755479 -0.020836981 -0.15484591 -0.1459311 -0.03759583 -0.028965948 -0.11840327 -0.026992781
-0.14219959 0.21596098 0.28457433 0.15425272 -0.07337148 -0.110729694 0.05025575 0.15480867
-0.09022774 0.15548138 -0.111033976 -0.060171742 0.11475018 0.35102907 -0.03244216 -0.015124209
-0.156758 -0.23864883 -0.040789176 -0.01190337 -0.06848086 0.057591364 -0.1681527 -0.07562333
-0.10176159 -0.07196183 -0.13767605 -0.1236373 -0.024387628 -0.04081576 -0.095124476 -0.23103374
0.013282544 -0.043778688 -0.1808306 -0.04409349 -0.1750407 0.011602315 0.04050039 -0.052282054
