models/independet_Basemodel2/best_CtoY_model.pth (torch, 252744 bytes, 2 tensors)

weight f4 [200, 312]
-0.16189805 -0.45796385 0.28049052 -0.04180302 1.8099877 0.00054362486 -0.6173357 -0.33950752
-0.051747266 -0.044928577 -0.004197639 -0.024927009 -0.045882188 -0.016141752 -0.2700915 -0.058097754
-0.05118065 -0.012044601 -0.034342673 -0.056557465 -0.052564092 -0.66719866 -0.027078535 0.23416233
-0.0484207 -0.03588077 -0.051067803 -0.046493173 -0.012797867 -0.26387793 -0.035145413 -0.037189458
-0.006852636 -0.03064741 -0.075867325 -0.18241787 -0.08842694 -0.020223932 0.35141307 -0.03469695
-0.06937877 -0.03153305 -0.05526523 -0.0747082 -0.13958588 -0.10698642 -0.05630202 -0.013675701
-0.016523669 -0.027482638 -0.039069224 -0.13669348 -0.06853574 -0.48433813 0.27699408 -0.19353189
-0.08968754 0.39593962 -0.07484166 -0.11434805 -0.022974012 -0.052772354 -0.0054803863 -0.26000652
-0.037116498 -0.041072726 -0.0066124117 -0.035225295 -0.036352046 0.29797056 -0.29562593 -0.011672337
0.21411419 0.06403639 0.09969637 0.41948316 -0.017566824 0.058835857 0.04465597 -0.041855626
-0.26542068 -0.017432375 -0.045158118 -0.006717121 -0.027732452 -0.023240572 -0.028909326 -0.014378673
-0.014332659 -0.05823812 0.15176219 0.09553864 -0.003140271 -0.3170119 -0.17825939 0.15196975
-0.17289989 -0.29265898 -0.0060716365 0.113833904 0.13841312 -0.06192011 1.2323459 -0.39940745
-0.39985934 -0.018043017 0.116735205 -0.025102848 -0.014502533 -0.017590167 0.4992 -0.0878355
-0.03853153 -0.00575062 -0.00938387 -0.07593187 -0.056814108 -0.8151217 -0.08013697 -0.3145355
-0.053505596 0.57218015 -0.07738869 -0.024968874 -0.012383461 0.22613314 -0.13993336 -0.021466827
-0.04799395 -0.017047081 -0.070847824 0.24699235 -0.3027748 -0.06803776 0.8207882 -0.15058677
-0.19862016 -0.03960843 -0.041383203 0.018540181 -0.110986345 -0.0202005 -0.00029036094 -0.0136740375
-0.03468562 0.57615715 -0.11730893 -0.058250606 0.33548853 0.84141743 -0.031564165 -0.76027244
-0.061556544 -1.0329012 -0.031407557 -0.027434023 -0.023329305 0.14638305 -0.044817418 -0.048235513
-0.018861908 -0.008626287 -0.042626254 -0.50407445 1.361563 -0.04728307 0.889373 -0.028051347
0.57125 -0.018535415 -0.008644399 -0.0041174986 0.2192053 -0.045765206 -0.033722077 -0.0010439375
-0.007151381 -0.027065817 -0.11287297 0.42061347 -0.01617196 0.17617135 -0.052420933 0.6360096
-0.036946364 -0.027371507 -0.034797154 0.23306091 -0.039331973 -0.0322372 -0.044106174 -0.012202007
-0.023708455 -0.14092454 -0.039151322 -0.024146503 -0.046240956 -0.023824925 -0.31133577 -0.01644671
-0.055997208 -0.06719936 0.2717938 -0.11397327 -0.043770716 -0.005862356 -0.0136298565 -0.029040039
0.05960628 -0.5125027 -0.02123186 0.26838332 0.32039565 0.30358517 -0.26622733 -0.063319944
0.0059674564 0.20472938 -0.6560036 -0.1977593 1.2813383 -0.30390579 0.38124928 -0.13699108
-0.10034083 1.5143536 -0.011445503 -0.14097832 -0.14492488 -0.104860954 -0.12880373 -0.044164058
-0.12093882 0.03302503 -0.17506641 -0.47714546 0.16000652 -0.2549621 -0.23335992 0.006589677
-0.025922319 -0.15124772 -0.18222049 0.16525118 0.3685058 -0.13095815 -0.193098 -0.023089666
-0.09192295 0.619601 -0.03069182 -0.082727775 -0.024603713 -0.21079239 -0.12243089 -0.05499205
00000000: 9ac8 25be 3d7a eabe 749c 8f3e a539 2bbd
00000010: adad e73f 0c82 0e3a b609 1ebf eed3 adbe
00000020: f1f4 53bd 0707 38bd 598c 89bb ba33 ccbc
00000030: f6ee 3bbd b53b 84bc 6f49 8abe e9f7 6dbd
00000040: cda2 51bd b856 45bc e7aa 0cbd cda8 67bd
00000050: 724d 57bd 88cd 2abf ced3 ddbc 40c8 6f3e
00000060: c954 46bd b7f7 12bd 792c 51bd a06f 3ebd
00000070: 25ae 51bc 021b 87be a3f4 0fbd f953 18bd
00000080: 148c e0bb 4710 fbbc 5460 9bbd c0cb 3abe
00000090: 2f19 b5bd a9ac a5bc 6aec b33e 641e 0ebd
000000a0: 7516 8ebd cd28 01bd cb5d 62bd 9d00 99bd
000000b0: 9aef 0ebe b21b dbbd f29c 66bd 0c10 60bc
000000c0: a55c 87bc 4523 e1bc 0d07 20bd 60f9 0bbe
000000d0: 775c 8cbd 2bfb f7be 2bd2 8d3e 392d 46be
000000e0: 1aae b7bd 99b8 ca3e 9646 99bd 4f2f eabd
000000f0: ff33 bcbc d327 58bd d094 b3bb 931f 85be
00000100: 7807 18bd e03b 28bd eeac d8bb 6648 10bd
00000110: e2e5 14bd 998f 983e 485c 97be 543d 3fbc
00000120: c040 5b3e 8325 833d 9c2d cc3d 7fc6 d63e
00000130: 4de8 8fbc defd 703d 2ee9 363d ce70 2bbd
00000140: 38e5 87be 57ce 8ebc b8f7 38bd 4c1b dcbb
00000150: 2b2f e3bc 0363 bebc 40d3 ecbc 8794 6bbc
00000160: 87d3 6abc 188b 6ebd 8c67 1b3e c3a9 c33d
00000170: 01cd 4dbb 624f a2be a189 36be f59d 1b3e
00000180: ab0c 31be 66d7 95be 94f4 c6bb c021 e93d
00000190: 2bbc 0d3e f19f 7dbd 83bd 9d3f 227f ccbe
000001a0: 5dba ccbe f3ce 93bc de12 ef3d 7da4 cdbc
000001b0: 089c 6dbc 4119 90bc 2497 ff3e 19e3 b3bd
000001c0: 3dd3 1dbd b26f bcbb cebe 19bc 2b82 9bbd
000001d0: e9b5 68bd d1ab 50bf da1e a4bd cc0a a1be
000001e0: af28 5bbd 667a 123f f67d 9ebd 868b ccbc
000001f0: 00e4 4abc 728f 673e b14a 0fbe 33db afbc
00000200: 4e95 44bd 52a6 8bbc aa18 91bd 90eb 7c3e
00000210: 4c05 9bbe 6257 8bbd 2d1f 523f 6b33 1abe
00000220: 1563 4bbe 733c 22bd 6f81 29bd 94e1 973c
00000230: cf4c e3bd 857b a5bc 963b 98b9 1209 60bc
00000240: 8212 0ebd 097f 133f aa3f f0bd 3098 6ebd
00000250: 27c5 ab3e 2267 573f 6d49 01bd 37a1 42bf
00000260: b722 7cbd 1b36 84bf 36a5 00bd 51bd e0bc
00000270: 191d bfbc 70e5 153e 7892 37bd 9a92 45bd
00000280: 4a84 9abc 4555 0dbc de98 2ebd 060b 01bf
00000290: b247 ae3f e4ab 41bd f3ad 633f f0cb e5bc
000002a0: 713d 123f 95d7 97bc 3da1 0dbc 15ec 86bb
000002b0: 5b77 603e 4c74 3bbd 2920 0abd bbd4 88ba
000002c0: 2256 eabb 22b9 ddbc f229 e7bd a65a d73e
000002d0: 0f7b 84bc 4366 343e 55b7 56bd 86d1 223f
000002e0: 1255 17bd 363a e0bc 7687 0ebd 85a7 6e3e
000002f0: 901a 21bd 270b 04bd ada8 34bd edea 47bc
00000300: 3c38 c2bc 864e 10be 235d 20bd e3ce c5bc
00000310: 2867 3dbd 7d2c c3bc 6767 9fbe 40bb 86bc
00000320: 545d 65bd d19f 89bd 8f28 8b3e d16a e9bd
00000330: ec48 33bd 0219 c0bb c34f 5fbc 60e5 edbc
00000340: b725 743d 6033 03bf 70ee adbc 8a69 893e
00000350: e60a a43e 846f 9b3e f34e 88be e3ad 81bd
00000360: a78a c33b 94a4 513e daef 27bf 6a81 4abe
00000370: e502 a43f 8a99 9bbe 1b33 c33e 6447 0cbe
00000380: 7e7f cdbd 57d6 c13f eb85 3bbc 9f5c 10be
00000390: 3067 14be 57c1 d6bd 20e5 03be 5fe5 34bd
000003a0: c6ae f7bd 4145 073d 9c44 33be 694c f4be
000003b0: c0d8 233e 648a 82be e7f5 6ebe 38ee d73b
000003c0: 0b5b d4bc afe0 1abe 0298 3abe 9b37 293e
000003d0: cbac bc3e e519 06be 7bbb 45be 8a26 bdbc
000003e0: 1a42 bcbd 2c9e 1e3f 696d fbbc 2e6d a9bd
000003f0: ba8d c9bc f6d9 57be 0cbd fabd 583f 61bd

bias f4 [200]
0.3858409 0.42507368 0.50367516 -0.12467203 0.03824521 0.24571253 0.4777859 -0.12581913
-0.1482741 -0.12539476 -0.07925756 0.26265433 -0.20179921 -0.2495515 -0.12157573 0.5418507
0.40482503 0.5047126 -0.19333152 -0.13345322 -0.13508469 0.9213931 0.24189183 0.5964029
0.108297795 -0.17241082 -0.14868037 -0.19104788 -0.39050925 -0.15499955 -0.48549652 -0.13922329
-0.2303691 -0.32541937 -0.06653722 0.028963665 -0.18650764 0.3679 -0.14834341 0.30153483
-0.15354702 0.022509718 -0.1348561 0.5053787 -0.15281424 -0.022357453 -0.033811383 0.025200887
-0.035148412 0.14073884 0.3682121 0.32466543 1.3982457 0.45195115 -0.0653078 0.3329146
-0.21116917 -0.0842604 -0.29092762 0.056599583 -0.32633877 -0.0021043243 -0.22881806 -0.17992225
0.25936353 -0.14360593 0.14805168 0.32563353 0.13504472 0.8084325 0.08948626 -0.13923341
-0.1469627 0.5429731 0.14229381 -0.14214496 0.3967806 -0.15438546 -0.1491357 0.05111542
-0.14218628 0.26451063 0.45413733 0.78765047 -0.15716925 -0.1499198 0.41513363 -0.03903475
-0.14778572 0.4265489 -0.14950618 0.27772453 -0.15030195 -0.13723344 -0.15386173 0.062485076
0.12456771 -0.09772391 0.16772357 0.81164825 0.37043217 -0.15014401 -0.15320179 -0.1453762
-0.11937199 0.19759364 -0.11478826 0.09230831 0.020342922 -0.35098115 -0.33404306 -0.13802963
-0.15190625 -0.24711095 -0.14457463 -0.15397327 -0.45597035 -0.055522133 -0.10850095 -0.32133475
0.025729531 -0.15432017 -0.19103685 0.06600191 -0.36497718 -0.15444377 -0.28013796 -0.14886132
-0.10524237 -0.14497274 -0.1520478 -0.13974606 0.0396486 -0.14496206 -0.13671464 0.18413177
-0.11226026 -0.046055924 -0.087796144 0.18625842 0.15912986 -0.1460117 -0.15266955 -0.15280648
0.23397219 -0.22551525 -0.20851757 0.23482195 -0.017370522 -0.23081283 -0.15102766 -0.40710077
-0.1548657 -0.1374367 -0.13660164 -0.15348475 -0.12395989 -0.11428283 -0.6399287 -0.14538185
-0.15428849 0.67155725 0.30322874 -0.2057071 0.13679792 -0.12497582 -0.01100793 -0.007166474
-0.0306569 0.29050502 -0.14826274 -0.25788617 -0.10884985 0.25912464 0.04788911 -0.32678074
-0.31283677 0.4096513 0.0514302 -0.06644146 -0.04152594 -0.0855568 -0.18432052 -0.15486853
0.061499447 -0.039517567 0.12878731 0.079978675 0.153858 0.3512011 -0.09446039 -0.42228487
-0.3226707 -0.15827464 -0.26422366 -0.25785622 -0.15216963 -0.37742367 -0.032538056 -0.035332914
00000000: f08c c53e 42a3 d93e dbf0 003f 0d54 ffbd
00000010: 02a7 1c3d 119c 7b3e 5aa0 f43e bbd6 00be
00000020: 2ad5 17be 7c67 00be ca51 a2bd a17a 863e
00000030: 74a4 4ebe 6e8a 7fbe b2fc f8bd bab6 0a3f
00000040: 3a45 cf3e d834 013f b3f8 45be f6a7 08be
00000050: a453 0abe 6be0 6b3f 7eb2 773e dcad 183f
00000060: 3ccb dd3d 768c 30be ab3f 18be 0ea2 43be
00000070: d4f0 c7be 34b8 1ebe 0093 f8be 8d90 0ebe
00000080: e1e5 6bbe 5e9d a6be aa44 88bd 3545 ed3c
00000090: dcfb 3ebe 645d bc3e 56e7 17be c662 9a3e
000000a0: 6e3b 1dbe 4d66 b83c b817 0abe 8060 013f
000000b0: 567b 1cbe fa26 b7bc ce7d 0abd 1772 ce3c
000000c0: c8f7 0fbd d81d 103e 4c86 bc3e 8c3a a63e
000000d0: b7f9 b23f 2466 e73e 19c0 85bd c873 aa3e
000000e0: bb3c 58be b790 acbd 77f4 94be f7d4 673d
000000f0: e015 a7be b4e8 09bb 484f 6abe 8a3d 38be
00000100: 4ccb 843e 6f0d 13be dc9a 173e 70b9 a63e
00000110: 2a49 0a3e 6ff5 4e3f 9344 b73d 3493 0ebe
00000120: 647d 16be 4900 0b3f 78b5 113e 738e 11be
00000130: d426 cb3e 3917 1ebe 07b7 18be 675e 513d
00000140: 4899 11be f06d 873e b084 e83e 76a3 493f
00000150: faf0 20be 9384 19be 658c d43e e7e2 1fbd
00000160: 2455 17be 9e64 da3e 2618 19be e931 8e3e
00000170: c1e8 19be ec86 0cbe ee8d 1dbe 5af0 7f3d
00000180: 5b1d ff3d 7923 c8bd babf 2b3e 2ec8 4f3f
00000190: 49a9 bd3e 5abf 19be eee0 1cbe 80dd 14be
000001a0: 4d79 f4bd fd55 4a3e 1b16 ebbd 240c bd3d
000001b0: 33a6 a63c cdb3 b3be b107 abbe a457 0dbe
000001c0: 508d 1bbe a70a 7dbe 5f0b 14be 2bab 1dbe
000001d0: f274 e9be 2d6b 63bd bf35 debd fd85 a4be
000001e0: bdc6 d23c 1b06 1ebe 2a9f 43be 022c 873d
000001f0: 4ade babe 8226 1ebe 3e6e 8fbe 1a6f 18be
00000200: 5089 d7bd bc73 14be 6bb2 1bbe 9719 0fbe
00000210: 9266 223d ef70 14be ecfe 0bbe 0a8d 3c3e
00000220: b5e8 e5bd 23a5 3cbd 77ce b3bd 87ba 3e3e
00000230: f0f2 223e 1784 15be 6855 1cbe 4d79 1cbe
00000240: 6896 6f3e 78ed 66be a185 55be 2a75 703e
00000250: a04c 8ebc 335a 6cbe ffa6 1abe 836f d0be
00000260: 1d95 1ebe 35bc 0cbe 4de1 0bbe 1b2b 1dbe
00000270: afde fdbd 1e0d eabd 5ed2 23bf fbde 14be
00000280: cdfd 1dbe 2deb 2b3f cc40 9b3e e2a4 52be
00000290: c114 0c3e 53f3 ffbd 9b5a 34bc bed4 eabb
000002a0: 2e24 fbbc 13bd 943e 30d2 17be a809 84be
000002b0: acec debd fcab 843e 5f27 443d ce4f a7be
000002c0: 242c a0be d1bd d13e 79a8 523d 7612 88bd
000002d0: 1b17 2abd 6738 afbd 85be 3cbe db95 1ebe
000002e0: d8e6 7b3d 2cdd 21bd d2e0 033e dccb a33d
000002f0: f48c 1d3e a1d0 b33e 7374 c1bd b935 d8be
00000300: 1835 a5be bf12 22be 5348 87be bb05 84be
00000310: 5bd2 1bbe ad3d c1be a046 05bd 3fb9 10bd
