models/Sequential_Basemodel2/best_CtoY_model.pth (torch, 252744 bytes, 2 tensors)

weight f4 [200, 312]
00000000: e9cc 49be 492d 2cbf bbd4 8e3e 2b87 2bbd
00000010: 0bd6 f63f 9a79 433d b4f3 26bf d10d 9ebe
00000020: c185 62bd 9727 36bd 22a5 4a3d 7e68 d0bc
00000030: c484 95bd cf32 1ebc aae3 03be 2d77 50bd
00000040: f725 8bbd 81bd ccbb 327f 33bd 468e 72bd
00000050: 6597 943b b7a4 2dbf a668 d5bc d167 803e
00000060: 291b 35bd 21bc 85bd 2d53 79bd 19c3 99bd
00000070: 6a85 ebba 8c72 49be 9555 42bd 8069 efbc
00000080: 6824 1dbb 4fd0 2abd 4570 a9bd 2001 77be
00000090: 7e73 aebd d821 b8bc 73ff a93e 2980 f5bc
000000a0: 6ca9 d7bc 25e1 cfbc 8ae7 b1bd 46a2 8ebd
000000b0: a47c 13bd bd46 f8bd 0d99 96bd 741c 11bc
000000c0: c56b 46bd fc6e d0bc 01b9 0b3d 661d cfbd
000000d0: aae5 94bd 43b1 0abf e9a9 a63e 1a4e 6ebe
000000e0: 2a49 d3bd 594b b83e 2214 a8bd 678d 0cbe
000000f0: b865 cdbc 0bbe a4bd 8e19 b13a 6833 15be
00000100: 1e0d 25bd 4c85 98bc 4679 bbbb 1b78 33bd
00000110: 9372 16bd a308 a33e 3c15 a6be 4e06 9bbc
00000120: fa16 4d3e e53b cebb a291 fb3d 7500 123f
00000130: 6ecf c33b 53ac 323b 068e 15bd 4ef1 09bd
00000140: 2cba a2be fc1a a8bc 5368 97bd 707c aaba
00000150: c9ad c4bc f89b 01bd 7d4a b8bc 25b3 75bb
00000160: 5bcf 43bc 183c febc 587b 3f3d cc0d 533c
00000170: df6e 5abc 57e4 91be 792b 46be 3547 2f3e
00000180: 0851 27be 3fd1 82be 6577 52bd e0ca 113e
00000190: d2a7 1a3e 14aa d83c 63dc 933f 7654 bfbe
000001a0: b3bf c2be c39c 48bc 7e0e 0f3e b4db c0bc
000001b0: b53e 8ebc c493 48bc fbe6 153f 1853 aebd
000001c0: 58e5 57bd f1b1 92bb c894 2ebc f5ec 95bd
000001d0: 16c6 31bd 550b 4bbf 7c53 b4bd 1c41 cabe
000001e0: 2609 83bd 8e92 0d3f 4a2c bcbd 0daf f1bc
000001f0: bc0d 8dbb 1ca5 893e 28c4 3fbd 0359 98bc
00000200: 541b 37bd 046d 3cbc 322b 94bd 5e67 3f3e
00000210: 7d3e bdbe 9882 9cbd 5264 503f b634 44be
00000220: 7d8f 5dbe 6dbd 8dbd f17d 21bd 0791 af3e
00000230: 420b 55bd cddc dfbc 13f0 2bbb 3687 80bb
00000240: 1020 32bd 825c ad3e 96e1 9e39 4c63 62bd
00000250: 73c5 b73e 133f 633f 28d0 4bbd 0d8f 50bf
00000260: 9a5e 70bd 9a90 8abf a0af e6bc 9c70 00bd
00000270: b267 8abc a7c5 7a3e 0a5b 71bd 15c9 30bd
00000280: d783 83bc e519 d5bb b337 adbd 6904 08bf
00000290: 2874 a73f 5bd8 53bd 5b9d 633f f559 b9bc
000002a0: ea2f 1e3f 8594 9ebc 1792 adbb 9d1f be37
000002b0: 76aa 973e 6ba8 50bd e756 15bd 1ab4 10bc
000002c0: 136c fdbb fef4 b0bc 1fca 7c3c d280 fc3e
000002d0: 0e91 92bc 1efd b13d 21e5 49bd 9b8a 433f
000002e0: ad08 08bd 143c 03bd c370 01bd fc5e 8c3e
000002f0: 7022 05bd 01b0 c8bc 28d5 24bd e6c0 f6bb
00000300: 8306 b5bc de9c 1b3d 85b5 3abd 8276 acbc
00000310: c171 8bbd 2bbc 98bc 92ac aabe 141a 87bc
00000320: f92b b3bd 5ef3 81bd 3708 a23e e826 02be
00000330: a18b 6abd 9f4e 93bb 49bc 3bbc 4aa3 debc
00000340: 8d7e 0c3d a5df fdbe 60bc a2bc fcd3 563e
00000350: 4417 553e 5e1e a83e 7155 6abe b2c2 c3bd
00000360: 283c 0b3e c77d e33d 66cb 2bbf a95e 02be
00000370: 49c8 ab3f 3c7e a3be 9288 9e3e 3fc7 13be
00000380: fbb4 e4bd bcad b53f cd9e 63bb 570a 653e
00000390: 89d3 4ebe db15 d1bd 4394 cfbd 91e7 7abd
000003a0: 62a9 6fbe 4e88 073d 5bf2 67be bc3d fabe
000003b0: 8081 183e 3592 80be 22bd 78be 6e68 893d
000003c0: 092e c53c 70bf 24be 332d a1bd 7b9b a03d
000003d0: 9a8a df3e e758 1fbe ae05 3bbe f233 7fbd
000003e0: b901 b5bd c7b4 2c3f ff12 d5bc b2a7 e4bd
000003f0: 3c1f 44bc 776f 7cbe 96a5 fdbd fa19 99bd
-0.19707073 -0.672566 0.27896675 -0.041876953 1.9284071 0.04772339 -0.6521561 -0.30869916
-0.05530334 -0.04447135 0.04947389 -0.02544045 -0.07300714 -0.009655668 -0.12879816 -0.050894905
-0.067943506 -0.0062481766 -0.043822475 -0.059217714 0.004534649 -0.6782946 -0.026050877 0.25079206
-0.044215355 -0.06530023 -0.06087034 -0.07507915 -0.0017968838 -0.19672602 -0.0474449 -0.029225111
-0.0023977999 -0.041702565 -0.08273367 -0.24121523 -0.08518122 -0.022477075 0.33202705 -0.029968338
-0.026325904 -0.025375912 -0.08686741 -0.06964545 -0.03600754 -0.12122867 -0.07353411 -0.008856881
-0.04844262 -0.025443546 0.03411198 -0.10113029 -0.072703674 -0.5417673 0.32551506 -0.23271981
-0.10316689 0.35994986 -0.08206965 -0.13725816 -0.025072917 -0.0804406 0.0013511644 -0.14570391
-0.040295713 -0.018618248 -0.005721244 -0.043815713 -0.03673036 0.31842527 -0.32438076 -0.018923905
0.20028296 -0.006293761 0.12283637 0.5703195 0.0059756553 0.0027263358 -0.036512397 -0.03367739
-0.31782663 -0.02052068 -0.07392945 -0.0013007056 -0.024008648 -0.031642884 -0.022496456 -0.0037490812
-0.011951293 -0.031034514 0.04674849 0.012881707 -0.013332098 -0.28494522 -0.19352521 0.17117007
-0.16339505 -0.25550267 -0.051383395 0.14237547 0.15103081 0.026448287 1.1551632 -0.37369126
-0.3803688 -0.012244406 0.13970372 -0.023542263 -0.017363885 -0.012242261 0.58555573 -0.085119426
-0.052708954 -0.0044767787 -0.010655589 -0.073205866 -0.0434018 -0.79314166 -0.08804986 -0.395028
-0.06398229 0.5530175 -0.09188135 -0.029502416 -0.004304616 0.2688378 -0.04681793 -0.018597132
-0.044703797 -0.011500601 -0.07234801 0.18691775 -0.36961737 -0.07642096 0.81403077 -0.19160733
-0.21636768 -0.06920896 -0.039426748 0.34290335 -0.05201269 -0.027326966 -0.0026235625 -0.0039223684
-0.04348761 0.3385964 0.00030304183 -0.055270478 0.3589283 0.8876812 -0.04975906 -0.8146828
-0.05868397 -1.0825379 -0.028159916 -0.031357393 -0.016895149 0.24489461 -0.058924712 -0.043160517
-0.016054077 -0.006503331 -0.084578894 -0.5313173 1.3082323 -0.051720005 0.8891198 -0.022625903
0.6179186 -0.019357929 -0.0052969563 2.2664486e-05 0.2962224 -0.050941866 -0.03645983 -0.008832002
-0.0077338307 -0.021601196 0.015429049 0.49317032 -0.017891433 0.086908564 -0.04929078 0.7638337
-0.0332114 -0.032039717 -0.03160168 0.27416217 -0.032503545 -0.024497988 -0.040242344 -0.0075303195
-0.022097832 0.037991397 -0.045583267 -0.021052603 -0.06808806 -0.018644413 -0.33334786 -0.016491927
-0.087486215 -0.06345247 0.31646892 -0.12710154 -0.057262067 -0.0044954563 -0.011458465 -0.027177472
0.034300376 -0.4958469 -0.019865215 0.20979303 0.20809656 0.32835668 -0.22884156 -0.095586196
0.13597167 0.111079745 -0.67107236 -0.12731422 1.3420497 -0.31932247 0.3096357 -0.14431475
-0.11167332 1.4193645 -0.0034732104 0.22367226 -0.20197882 -0.10209247 -0.101357006 -0.061255995
-0.23404458 0.033088975 -0.22651045 -0.48875225 0.1489315 -0.25111547 -0.24290898 0.067093715
0.024069803 -0.16088653 -0.07869949 0.078421555 0.43660432 -0.15561257 -0.18263885 -0.0623054
-0.08838219 0.67463344 -0.026010035 -0.11164798 -0.0119703375 -0.24651895 -0.12385099 -0.07475658

bias f4 [200]
00000000: 97d6 c73e c2b6 d83e 128b 053f 64ad 03be
00000010: 2cfa d13d 6cc1 333e 6138 d23e c9f5 fcbd
00000020: 05cf 1abe 6ffd 2bbe 2b69 02be db8b 893e
00000030: 05d0 5abe ba06 87be 0c28 c0bd a28c 083f
00000040: d501 cb3e 5e71 093f d45e 59be 33ef 1abe
00000050: f0c5 29be 4bec 733f 48fe 773e 7dd9 1f3f
00000060: 8a0f c43d f112 46be ea8e 18be 2752 53be
00000070: 429c ecbe 1afa 1ebe 1e0f f8be f69a 0cbe
00000080: 9d4d 79be 2118 18be b7c7 a0bd 5180 eb3c
00000090: f6e4 38be 2aa7 ab3e db7c 18be 0d80 9f3e
000000a0: 31eb 1cbe 6fcd d63c b023 12be a3a2 fd3e
000000b0: 5b6c 1dbe 24c1 d8bc 6c69 6bbc e6e5 ec3c
000000c0: 46e5 eabc a389 fd3d fc6c e73e a551 a53e
000000d0: 412c b73f acd1 e73e 7d63 4abd 1125 4b3e
000000e0: 931b 5dbe 8eab bcbd 4c05 aabe e0f8 353d
000000f0: ac76 a8be 7445 6a3a 21db 80be ae91 47be
00000100: e472 853e ce91 19be 903e 253e a4cd ac3e
00000110: cbf0 503e 5b2b 4e3f c3b1 17be ae42 0bbe
00000120: 540d 16be d41e 2b3f f80d 133e e89d 11be
00000130: b909 e53e 829c 1abe a30f 1dbe 80fa 493d
00000140: 3b18 34be 90e4 933e 3fba e93e a558 533f
00000150: b0f0 17be 88d0 1bbe e69e d83e 8637 81ba
00000160: 0688 1bbe 8614 d73e 070c 1cbe acf0 903d
00000170: 9531 c9bd b7a9 0ebe 3c97 08be 378d b93c
00000180: b848 ae3d 253e 0cbe 8e2c 483e c55e 4e3f
00000190: 6538 bb3e 260e 15be 3618 1dbe 7462 12be
000001a0: 06ce f8bd 1a01 4c3e 0548 1cbe 9e53 ba3d
000001b0: eb7a b4bd d43e bebe c1d5 1ebe 1897 0cbe
000001c0: 2b81 1dbe ab73 89be b047 17be 3ca3 1ebe
000001d0: ede4 fabe bc63 eebd 7a0b 20be 9cf2 bbbe
000001e0: 4177 c83c 2fd9 83be f9e1 4dbe 23e8 443e
000001f0: 5f9f c6be 4de0 1fbe 61ed adbe b6eb 17be
00000200: 89c6 abbd 6d03 18be 59b9 1cbe 4e0a 0a3f
00000210: ddf7 64be f4fa 0dbe d245 0cbe 8297 373e
00000220: 53a3 e5bd fa2a 39bd 3dc9 b4bd 18f9 3a3e
00000230: 40d6 373e f836 17be f9fb 973e c0ba 1cbe
00000240: 2b97 213e fa37 9abe 4111 96be b60d 523e
00000250: 74a6 45bc 62da 88be 10ce 19be 7064 dfbe
00000260: 4809 20be 1ed7 12be 26b0 0fbe 8fa7 29be
00000270: 424e b9bc 022f 1ebe 1bb5 26bf 1030 15be
00000280: d4f2 1ebe a43c 18be 3948 bb3e c00c 5dbe
00000290: 20cc 1c3e 6174 b6bd a072 893c 4bb5 6e3c
000002a0: 2e5e d0bc 017c b63e 2f8c 13be ff92 59be
000002b0: 0f4a 073f 645e 8a3e 6f55 8d3b ea17 adbe
000002c0: cc57 a4be fadc e53e 1f42 1ebe f8ac 76bd
000002d0: 4c51 1ebd 4638 58bd 3575 56be 9160 85be
000002e0: 5ba8 953d 8a26 6fbd 4bb1 733e 2f53 c03d
000002f0: e1bd 2d3e 231f b33e 6d41 aabd 7800 e0be
00000300: 8477 a5be 9057 21be 8e06 8bbe 718b 92be
00000310: 5fb8 1dbe 4026 cdbe 0428 a5bd 099b 3abc
0.39030907 0.42326933 0.5216533 -0.12859112 0.102527946 0.17554253 0.4105864 -0.12351567
-0.15118034 -0.16795896 -0.12735431 0.26864514 -0.21368416 -0.2637232 -0.09382638 0.5333959
0.39649835 0.5368861 -0.2122758 -0.1513031 -0.16579413 0.9528243 0.24218094 0.62441236
0.09573276 -0.19343163 -0.14898267 -0.20636807 -0.46212965 -0.15525094 -0.48449033 -0.13730988
-0.24346013 -0.14852954 -0.078505926 0.02874771 -0.18056092 0.33525974 -0.14891379 0.31152382
-0.15324093 0.026221005 -0.14271426 0.49538144 -0.15373366 -0.026459284 -0.014368396 0.028918218
-0.02867378 0.12379768 0.45200336 0.32288852 1.431038 0.45277154 -0.049411286 0.19838358
-0.2159255 -0.09212409 -0.33207166 0.0444268 -0.3290304 0.0008936741 -0.25167182 -0.19489166
0.26064217 -0.14997026 0.16137147 0.3375064 0.20404355 0.80534905 -0.14813904 -0.13599655
-0.14653522 0.66843915 0.14360797 -0.14220393 0.4473398 -0.15098765 -0.15337996 0.04931116
-0.17587368 0.28885317 0.45649907 0.82557136 -0.14837909 -0.15216267 0.4230873 -0.0009858466
-0.15188608 0.42007846 -0.15238963 0.070771545 -0.0982391 -0.13931929 -0.13338941 0.022650344
0.08509964 -0.13695581 0.19548246 0.80613357 0.36566463 -0.14556178 -0.15341267 -0.1429537
-0.12148671 0.19922295 -0.15261848 0.0909798 -0.08812507 -0.3715731 -0.15511228 -0.13729513
-0.15381305 -0.2684606 -0.1477344 -0.15491956 -0.49002782 -0.116401166 -0.15629378 -0.36708534
0.024470927 -0.25751635 -0.20105733 0.19229178 -0.38793465 -0.15612908 -0.33970168 -0.1483601
-0.08387477 -0.14845057 -0.1530508 0.53921974 -0.22360177 -0.13865262 -0.1369851 0.1792889
-0.11212792 -0.045207 -0.08827446 0.18259084 0.17952824 -0.14767063 0.29684427 -0.15305614
0.15780322 -0.30120832 -0.2931004 0.20513043 -0.012063611 -0.26729113 -0.15020013 -0.43631315
-0.1562854 -0.14339873 -0.14032039 -0.16567825 -0.022620324 -0.1544762 -0.65120095 -0.14569116
-0.15522319 -0.14866883 0.3657854 -0.21586895 0.15312243 -0.08908916 0.01677829 0.014569591
-0.025435533 0.35641482 -0.14408945 -0.21247481 0.5284738 0.2702514 0.004313163 -0.33807307
-0.32098234 0.44895154 -0.1545491 -0.06022355 -0.03865175 -0.05278804 -0.20943148 -0.26050237
0.07307502 -0.058386363 0.237981 0.09390866 0.16966964 0.34984693 -0.0831326 -0.43750358
-0.32317746 -0.15756059 -0.27153438 -0.2862201 -0.15402363 -0.40068245 -0.08064273 -0.011389502
