models/Standard_Baselinemodel1/best_CtoY_model.pth (torch, 130312 bytes, 2 tensors)

weight f4 [200, 159]
000000 3c 80 21 3d d1 c9 a5 3c 63 87 88 bd f7 b8 2f ba
       0.039428934 0.020237835 -0.06666448 -0.0006703282
000010 09 11 e7 3a 80 f1 15 3d 4b c4 3b 3d 7d cf 8e bd
       0.0017628978 0.036607265 0.045841496 -0.06973169
000020 c8 5f c8 3c 46 f8 28 3d 12 4a 40 bd b6 ec 6e 3b
       0.024459735 0.041252397 -0.04694564 0.0036457009
000030 e0 38 e3 3b 52 de ed 3c 95 75 0d bd f8 fc de ba
       0.0069342703 0.029036675 -0.034535963 -0.0017012646
000040 36 e3 73 bd a5 9f 20 3d c8 1e 0d 3d 1d 2d 94 3b
       -0.059542857 0.03921475 0.034453183 0.0045219795
000050 48 5b 1f 3d 07 17 c7 3a ab db 90 bc d6 7d 58 bd
       0.038905412 0.0015189358 -0.01768287 -0.05285438
000060 80 95 e6 3b 31 91 06 bd f8 0d d6 bb 99 54 17 bd
       0.0070368648 -0.03285331 -0.006532427 -0.036945913
000070 91 25 88 3d 0b 00 38 bd 31 01 16 bd df 39 8a bd
       0.0664779 -0.044921916 -0.03662223 -0.06749319
000080 33 23 33 bd 26 72 2e 3d 4b 49 ba bc 18 e1 3b 3d
       -0.04373474 0.04258933 -0.022740027 0.045868963
000090 ac f4 86 3c f6 46 f2 3c ca d6 49 3d f2 81 3a bc
       0.01647409 0.029574852 0.049277104 -0.01138352
0000a0 60 e4 11 3c 8e b1 aa bc ae 0d 92 bd 40 5e 7d bd
       0.0089045465 -0.020836618 -0.071315154 -0.061857462
0000b0 52 e7 0d 3d 04 5e 0d bc 7d e4 0d 3c b7 68 a7 bd
       0.034644432 -0.008628372 0.008660433 -0.0817427
0000c0 9e 81 9c bd e1 af f9 bc cd dd 29 bd 73 72 c8 bc
       -0.0764191 -0.030479373 -0.04147129 -0.024468636
0000d0 6a a1 45 3d 1c 9a 68 3d c1 fd a9 bd 7f 20 82 bd
       0.04824964 0.056787595 -0.08300353 -0.063538544
0000e0 64 e3 2a 3d 11 56 a8 bc 08 49 10 bd ed 98 d0 bc
       0.041720763 -0.020548852 -0.035225898 -0.025463546
0000f0 c0 b6 9a bd a5 f1 31 bd f2 1c 86 3c 26 96 4d 3c
       -0.07554388 -0.04344334 0.016371224 0.012548005
000100 64 27 09 3c 5f 74 1e bd 88 ae 87 3d 59 6a 7e 3d
       0.008371208 -0.0386852 0.06625086 0.06211314
000110 68 67 06 bc c7 30 a5 bd 4b 81 b0 3b fe 07 c2 3d
       -0.008203365 -0.08065944 0.0053865067 0.09474181
000120 e3 fc 7b bd 8d 23 08 3d 9f b9 a7 3c d2 87 1f 3c
       -0.06152047 0.03323703 0.020474253 0.009736972
000130 57 8b 5a bc bd b9 89 bd cd 42 0f bd 1c b5 8a 3d
       -0.013338885 -0.0672488 -0.034975816 0.06772825
000140 38 cf 94 bd e9 18 58 3b 04 1a 7a bc 03 bb f3 3c
       -0.07266086 0.0032973832 -0.015264992 0.02975226
000150 96 5b 18 3b ee 20 39 3b 4d d4 41 3c 2a cf 95 3d
       0.002324795 0.0028248387 0.011830402 0.07314904
000160 df 85 17 3c fa 3d 95 3c 9d 36 9b bd f9 a2 11 bd
       0.009248226 0.01821803 -0.07578776 -0.035555813
000170 e4 6a 7c bc 02 cc 7c bc 36 f1 2f 3d 31 7d 13 3b
       -0.015406344 -0.015429499 0.042954646 0.002250504
000180 07 bd c0 bb d7 0a 21 bd 37 d1 52 3d b9 3c 0e bd
       -0.005881909 -0.03931698 0.051469054 -0.03472588
000190 08 2a ed 3c 9a 2f fc bc 00 ef 48 3d 65 75 68 bd
       0.028950706 -0.030784417 0.049056053 -0.05675258
0001a0 f3 cd bb 39 d9 29 72 3c da c1 97 bd 55 0e 2a bd
       0.00035820864 0.014780485 -0.07410021 -0.041517574
0001b0 79 ee 7d bd b3 05 68 bd 90 6e 7e bc 03 ba 8a bd
       -0.061995003 -0.05664606 -0.01552929 -0.0677376
0001c0 27 b1 52 bc a0 52 35 3d 9f 78 c2 bc c5 4e 85 3d
       -0.012859619 0.04426825 -0.023739157 0.06509165
0001d0 7b f4 4e bd 7d e8 1a 3b 8f f0 a0 bd bf 36 74 bb
       -0.050526123 0.002363711 -0.07858383 -0.0037264077
0001e0 06 e4 34 bd 4d 89 0a 3d 18 71 b8 3d 68 bb 58 3d
       -0.044162773 0.033822346 0.09005946 0.0529131
0001f0 86 9c 76 3d 5d b8 a8 b8 f3 e1 52 3d f8 b8 e5 3c
       0.060207866 -8.0452046e-05 0.051485013 0.028042302
000200 17 eb 39 3d 90 9d 4f bc 23 d0 48 bd 92 92 90 bd
       0.045390215 -0.012671843 -0.04902662 -0.07059206
000210 00 67 b5 bd 7c 1f a1 bd 04 d1 53 bd 43 99 21 3d
       -0.08857536 -0.07867333 -0.051713005 0.039452802
000220 ad 3e 7e bb 0c 20 9d bd d4 db 3f bd f7 bd 5d bd
       -0.0038794682 -0.07672128 -0.046840504 -0.054136243
000230 53 eb b9 3b 04 7b 00 3d b3 11 81 3c b2 23 03 bc
       0.005673805 0.031367317 0.01575551 -0.008004116
000240 09 89 42 bd 2e bb 88 3d 25 ab 8b bb 7b 73 1a bc
       -0.04749397 0.06676327 -0.0042623454 -0.009426947
000250 4a 5b 19 3d 8d 9f a0 3d 11 93 b4 3c 5e f0 e3 3c
       0.037440576 0.07842932 0.022042783 0.027824577
000260 d2 61 88 bb 66 b7 20 bd 80 79 99 bc 6b 06 ae bb
       -0.0041620517 -0.039237402 -0.018734694 -0.0053108237
000270 42 d3 92 bd cd e1 ab 3c ba dc b9 bd ed 76 3e 3d
       -0.071692005 0.020981694 -0.090753034 0.046500135
000280 66 08 ea bc df 69 55 3d 68 8c 09 bd fa 0e 56 bd
       -0.028568458 0.05210292 -0.033581167 -0.052260377
000290 f4 c7 58 bc 8e f6 71 3c 5f c1 bf 3b 10 47 5f 3c
       -0.013231266 0.014768256 0.005851909 0.013627782
0002a0 df 30 19 bd 73 4d 6a bd 5f 0d 87 bd 5e ce 3f 3d
       -0.037400123 -0.057202768 -0.06594347 0.046827666
0002b0 fb f8 4a 3c c3 ed d9 bc b0 2c 6b 3c 6c 87 d8 3c
       0.012388463 -0.026602631 0.014353916 0.026431762
0002c0 02 ef fb bc 05 f2 98 bd 0a 02 2c bc 04 7d 27 bd
       -0.030753616 -0.074680366 -0.010498533 -0.04089071
0002d0 19 47 12 3d c0 84 48 bd e4 90 19 bd 64 50 af 3c
       0.035712335 -0.048954725 -0.037491694 0.021400638
0002e0 a8 d7 de 3c c8 20 9a bd ee 1c f6 bc e0 b3 8b bd
       0.027202442 -0.07525784 -0.030043092 -0.06821418
0002f0 1a e8 9a bc 69 ea b4 bc 96 6c 05 3c 08 a2 29 3d
       -0.018909503 -0.022084432 0.008143565 0.04141429
000300 cf 74 36 bd ba 94 57 bd 46 4e 28 bd b0 00 c8 bc
       -0.04454499 -0.05263207 -0.041090272 -0.02441439
000310 fd cf 78 bb 49 07 8f 3c f7 f8 50 bd a6 12 10 3d
       -0.0037965768 0.017459529 -0.05101868 0.035174035
000320 ba 5a 45 3d 7c c2 29 3d 08 19 33 3c 63 e7 1a bd
       0.048182227 0.04144524 0.010931261 -0.037818324
000330 94 b0 a6 bd c9 8f e1 bc 4a 8f f0 bb 62 cd b6 3c
       -0.08139148 -0.027534382 -0.0073413 0.022314731
000340 d6 6a 60 3d 19 74 09 bd ec a2 b3 bb 61 a2 19 bd
       0.054789387 -0.033557985 -0.0054820683 -0.037508372
000350 14 96 1a 3d 7e de ab bd 19 c3 49 bd 23 09 60 bc
       0.037740782 -0.083920464 -0.049258325 -0.013674053
000360 af ef d8 3c 56 d4 44 3d 81 68 34 3d 1c db 51 bd
       0.026481478 0.04805406 0.044044975 -0.05123435
000370 3f 63 1f 3c 4d 80 ab 3c bc 50 11 3d 37 5c 53 bd
       0.009728252 0.020935202 0.035477385 -0.051601615
000380 6a 2b 27 bd 2f a4 01 3d 2a 7e 89 bd e2 99 9c bd
       -0.040812887 0.03165072 -0.06713517 -0.07646538
000390 23 48 82 bd c7 d8 83 3d 18 40 5f bc 66 9f 82 bd
       -0.06361415 0.06437831 -0.013626121 -0.06378059
0003a0 6b 2f b6 bd 11 71 8d 3c 05 7d 6c 3d 83 23 9a bd
       -0.08895763 0.017265828 0.057736415 -0.075263046
0003b0 f7 73 32 bd 91 43 26 bd 78 52 56 3d 6b 0c 80 bd
       -0.043567624 -0.04059178 0.052324742 -0.062523685
0003c0 67 45 ed bc b8 21 33 3d 66 a0 06 bc 30 a6 7d 3d
       -0.028963758 0.04373333 -0.008216953 0.061926067
0003d0 b3 f7 a7 3c e6 9d 98 bd 85 f1 52 bd 4a e0 71 3d
       0.020503854 -0.07451992 -0.051499862 0.05905179
0003e0 17 76 45 bd c7 08 19 3d d5 75 90 3c 81 61 98 3c
       -0.048208322 0.037361886 0.017634312 0.018601181
0003f0 ea c3 01 3d 1e a5 69 bd ab 09 c0 bc ca e4 8a 3c
       0.03168098 -0.057042234 -0.02344211 0.016954798

bias f4 [200]
000000 e1 0d 12 bd 00 61 5c 3d cd 5f b1 bb fd 6d aa 3c
       -0.035657767 0.053803444 -0.0054130317 0.0208044
000010 77 c6 36 3c e6 5a 99 3d 4a ad 3c 3e 1a dc a9 3c
       0.011155716 0.074880406 0.1842548 0.020734835
000020 e9 68 48 3d 3d df 99 bd 67 e0 88 bd 2e 26 1c 3d
       0.048928175 -0.075132824 -0.06683426 0.03812235
000030 01 60 52 3d 3e 3c 4a 3e 3d 0b d5 bc 8d 46 b5 bc
       0.051361088 0.19749543 -0.026006335 -0.022128368
000040 7c d4 82 bd 33 06 2b 3d 8f 6c 0c 3d 62 a8 98 bd
       -0.063881844 0.04175396 0.034283217 -0.074539915
000050 9b cf 38 3d 1f 45 7b 3d 52 e3 28 bd 6d 42 26 3e
       0.045119863 0.061345216 -0.041232415 0.16236277
000060 67 53 9b bd 21 e2 4b 3d 7e c1 3b bd ac 7c 20 bc
       -0.07584267 0.0497762 -0.045838825 -0.009795349
000070 01 1e 9f bd 0f 96 16 3c e7 c3 31 3d 67 98 70 bc
       -0.07769395 0.00919105 0.043399718 -0.014684773
000080 2e 69 1e 3e 2d ed 21 3d c7 c0 ab bb 7d 57 a8 bc
       0.1546981 0.03953283 -0.0052414867 -0.02054953
000090 19 6d b2 bd 83 3f 4b bd 0b e2 f9 bb 12 66 7c 3c
       -0.08712215 -0.049621116 -0.0076258234 0.015405195
0000a0 6c 48 5b 3c 17 e8 db 3c b6 73 43 bc d0 d2 aa bd
       0.013383966 0.026844067 -0.011929443 -0.083409905
0000b0 d4 8f e9 3d c9 42 8d bb b0 85 5d bd 62 02 c5 3c
       0.11404386 -0.00431094 -0.054082572 0.024048988
0000c0 6a 3f 03 3d 36 c6 8d bd 0b 0e 40 bd 6c bb 8c bc
       0.0320429 -0.06922571 -0.046888392 -0.017179213
0000d0 90 2f 9f 3d cc 96 50 3b b4 e4 04 3e 25 23 4a bd
       0.07772744 0.0031828163 0.12977868 -0.049349923
0000e0 5d 59 b4 bd 17 0d 2c 3d 3b f3 bc bd 9a d4 47 bd
       -0.08806107 0.04200467 -0.0922608 -0.048786737
0000f0 9a 78 8d bd b5 78 c3 3c 60 cd ac 3d e7 37 b3 3c
       -0.069077685 0.023861269 0.0843761 0.021877242
000100 0b 65 06 3d 97 61 77 3b c7 49 56 bd 27 11 2f bd
       0.032811206 0.0037747377 -0.052316453 -0.042740967
000110 00 d2 42 bd 2f ac 22 bc b6 06 df bc 1d 4e 08 bd
       -0.047563553 -0.009928747 -0.02722488 -0.03327762
000120 2d e1 91 bd d1 6b 56 bc 53 4e 51 3e 65 d1 7c 3b
       -0.07123027 -0.013087229 0.20440035 0.0038576957
000130 31 25 2d bd 3d 02 32 3d e6 09 92 bd f3 d8 49 3c
       -0.042271797 0.043459166 -0.07130794 0.012319791
000140 9c 52 c5 3d c1 36 86 bd df 98 80 3c 13 37 73 bb
       0.09634897 -0.06553412 0.015697895 -0.0037111684
000150 73 20 8d b9 b6 a5 21 bd 8c b4 5b 3d a9 31 a3 bd
       -0.00026917792 -0.039464675 0.05363898 -0.07968456
000160 45 e6 1e bd 82 45 18 3e e3 69 22 bb dd 92 85 3d
       -0.03879382 0.14870265 -0.0024782352 0.065221526
000170 17 ab 3b bd 5e f4 73 bc da 6d 34 3d a9 56 13 bd
       -0.04581746 -0.014889805 0.044050075 -0.035971317
000180 94 c2 bd 3b 1d fa 27 3b 49 b8 98 bd 3d 01 19 3d
       0.005791018 0.0025631257 -0.074570246 0.037354697
000190 5d 80 64 bd 30 1b c7 bd 31 84 be 3d 9f 69 be 3d
       -0.05578648 -0.097219825 0.09302557 0.092974894
0001a0 ed cf 8a bd 13 01 16 bd e6 68 8c 3d c4 62 3c ba
       -0.0677794 -0.03662212 0.06855945 -0.0007186348
0001b0 e6 50 44 bb 70 00 a4 3c db cc 2b bd 6b 0d f0 3c
       -0.0029955446 0.02001974 -0.041943412 0.029303273
0001c0 05 5c 2a 3d 0d de 17 3d 0a a1 0c bd b1 ec d8 bc
       0.041591663 0.037077 -0.034333266 -0.02648005
0001d0 8d 32 07 3d ad 5b ab bd 83 d6 87 bd bd 76 93 bd
       0.033007193 -0.08367095 -0.06632712 -0.07200382
0001e0 21 e6 92 3b 1d 21 08 3d 8a 43 0f bd fb ba a8 bd
       0.004483 0.033234704 -0.03497652 -0.08238789
0001f0 78 22 9e bd ed 73 70 bd e7 a5 44 3d 02 6e ee bc
       -0.07721418 -0.058704305 0.04800978 -0.02910519
000200 58 bf 7a bd 7e 0d 80 bd 05 9c ef 3c 2c 1d 03 bd
       -0.061217636 -0.062525734 0.0292492 -0.032010242
000210 2a 26 a5 bc 0f ef 7b 3c b8 b6 34 bd 5f 5b f0 3d
       -0.0201598 0.01537682 -0.044119567 0.11736178
000220 15 11 25 bb 8f 7e 68 3b f2 90 73 bd 17 41 50 3c
       -0.0025187184 0.0035475825 -0.059464402 0.012710831
000230 18 ca d0 bc 13 a1 94 bd c2 73 50 3e b0 76 82 bd
       -0.02548699 -0.07257285 0.20356658 -0.06370294
000240 44 6b 1b bd d7 0a 4a 3d 05 62 95 bc d8 46 6d 3c
       -0.037944093 0.049326744 -0.018235216 0.0144822225
000250 de a4 c1 bc c7 86 21 bc a4 34 b1 bd b9 db ca 3b
       -0.023638185 -0.009858794 -0.086526185 0.0061907438
000260 9b fb 34 3d fb f7 44 3e 76 38 e4 3c 5f 00 b5 bd
       0.044185262 0.19235222 0.027858954 -0.088379614
000270 29 12 1a bd 49 de 93 bd a4 59 bc bd 33 e1 91 bd
       -0.037614975 -0.07220132 -0.09196785 -0.071230315
000280 9b 0d 06 3e a4 0f d3 bc 35 fd 64 bd 5d c3 0f 3d
       0.13091128 -0.025764294 -0.05590554 0.035098422
000290 d5 a4 20 3d cd 95 fc bc 46 c2 da 3b 41 bb b4 bd
       0.039219696 -0.03083315 0.006675991 -0.08824778
0002a0 76 69 c2 3c ba 92 6b bd 54 8d 1a 3d 98 37 27 3e
       0.023731928 -0.057512976 0.037732437 0.16329801
0002b0 54 33 96 3d a9 52 8d bd 7d 41 16 3d 38 7b d5 3c
       0.07334009 -0.06900532 0.03668355 0.026059732
0002c0 67 19 90 bd 26 a7 39 3d 11 30 cc bd 93 a9 bb 3c
       -0.07036095 0.04532542 -0.099701054 0.022908008
0002d0 45 16 81 3b 60 96 49 bd 8f 81 78 3d c4 1f 03 3d
       0.0039394223 -0.049215674 0.06067043 0.032012716
0002e0 ac e4 4a 3d 9e 46 7a bd 6e bb 44 3c ed a6 0d 3d
       0.049534485 -0.061102502 0.012007577 0.03458302
0002f0 54 9a 62 bd 34 e6 7f 3c bb bf e6 3c c8 af 8b bd
       -0.05532296 0.01561885 0.028167596 -0.06820637
000300 a2 18 0c bd e4 47 57 3d e3 d0 80 bd 44 af 3b 3c
       -0.03420318 0.052558795 -0.06289842 0.011455361
000310 ee ab b8 3c 83 58 bb bd 3c 75 03 3d ce ca 28 3d
       0.02254292 -0.09147742 0.032094225 0.041209035
