models/Sequential_Basemodel1/best_CtoY_model.pth (torch, 130312 bytes, 2 tensors)

weight f4 [200, 159]
0	0xbd8341ed	-0.06409059
1	0x3edc3ac9	0.430136
2	0xbdf42617	-0.119213276
3	0xbe4c3ea6	-0.19945773
4	0xbe01dae6	-0.1268116
5	0xbb8d947d	-0.0043206797
6	0x3e0690f7	0.13141237
7	0xbe95de12	-0.2927099
8	0xbceb467d	-0.028720135
9	0xbc2a7aea	-0.010405282
10	0x3e6445d9	0.2229227
11	0xbde55dde	-0.11199544
12	0x3e6b3c19	0.22972144
13	0xbb960aac	-0.004578909
14	0x3e022ae1	0.1271167
15	0x3e084e48	0.13311112
16	0xbc94d027	-0.018165661
17	0xbc3f5856	-0.011678776
18	0xbeac68e7	-0.33673784
19	0xbe1fe59d	-0.15614934
20	0x3e49aa30	0.19693828
21	0xbe31637e	-0.1732311
22	0x3e67906f	0.22613691
23	0xbd494d25	-0.049145836
24	0xbb8c77fa	-0.0042867633
25	0x3eb26222	0.34840494
26	0x3e5fc8b6	0.21853909
27	0xbb371baf	-0.0027940085
28	0x3e4eb8a6	0.20187625
29	0x3dd289f4	0.10280219
30	0xbdbbd933	-0.09172287
31	0xbdd76264	-0.105168134
32	0xbddf6434	-0.10907784
33	0xbb90f88c	-0.0044241603
34	0x3e242ab4	0.16031915
35	0x3e376b81	0.17912103
36	0xbc16313c	-0.009167012
37	0xbc29c07f	-0.010360836
38	0x3e8bf6eb	0.2733682
39	0xbdc24f16	-0.09487741
40	0x3e7bd414	0.2459262
41	0xbe3a362c	-0.18184727
42	0xbd613485	-0.054981727
43	0xbc0f0481	-0.008729101
44	0x3e8324cf	0.2561402
45	0xbe85ee60	-0.26158428
46	0xbc83cf23	-0.016089981
47	0xbe3b7fa7	-0.18310414
48	0xbd915823	-0.07096889
49	0xbe579b95	-0.21055444
50	0xbce42a67	-0.02785225
51	0xbc9b5429	-0.01896103
52	0xbd27527b	-0.040850144
53	0xbd3635ca	-0.04448489
54	0xbe358a2a	-0.17728487
55	0xbd50a0dd	-0.05093466
56	0xbd2af39d	-0.041736234
57	0xbcfda40c	-0.030962013
58	0x3e9ad5b6	0.30241174
59	0x3e59dd08	0.21275723
60	0xbd2c449e	-0.042057626
61	0xbe069a13	-0.13144712
62	0xbe8b2fb1	-0.27184823
63	0xbb55ef9c	-0.003264404
64	0xbe9d9e73	-0.3078495
65	0x3e9fdcdc	0.3122319
66	0x3e8b558a	0.272137
67	0xbd001ea9	-0.03127924
68	0xbe0f9994	-0.14023429
69	0xbe84311d	-0.2581872
70	0xbbb800f4	-0.005615348
71	0x3e697991	0.2280028
72	0xbda77b20	-0.08177781
73	0xbb469bfd	-0.0030305379
74	0x3e14b4b0	0.14522052
75	0xbd343093	-0.043991636
76	0xbe9d34de	-0.30704397
77	0xbb5bd70d	-0.0033544928
78	0xbe940f5b	-0.28917965
79	0x3e4051f0	0.18781257
80	0xbc6b9746	-0.014379328
81	0xbe307e76	-0.17235741
82	0x3ece9fb5	0.40356222
83	0xbc76ec68	-0.015071012
84	0x3e989e03	0.29808053
85	0xbb64c452	-0.0034907055
86	0x3e4d84e3	0.20070224
87	0x3e899eb3	0.2687889
88	0xbcfc2166	-0.030777644
89	0x3e60bb67	0.21946488
90	0xbe003837	-0.12521444
91	0x3e9dc9ed	0.3081812
92	0xbb40a7b5	-0.0029396836
93	0x3e69922f	0.22809671
94	0x3e4dd141	0.20099355
95	0xbca2d8a7	-0.019878699
96	0xbe0b5cbf	-0.13609599
97	0xbe212ae5	-0.15739019
98	0x3e599327	0.2124754
99	0xbe04b43f	-0.12959383
100	0x3e444a63	0.19169001
101	0xbd4d1f70	-0.05007881
102	0xbdcd0346	-0.1001039
103	0xbe9a708b	-0.30163988
104	0xbb42bfda	-0.0029716403
105	0xbe7a80e0	-0.24463224
106	0xbe8b36be	-0.27190202
107	0xbdf1cfd6	-0.1180722
108	0xbd5a41e9	-0.053285513
109	0xbe8ef14f	-0.2791848
110	0x3e8e0192	0.27735573
111	0xbe1357ca	-0.14388958
112	0x3eb791dc	0.3585347
113	0xbd6694f6	-0.056294404
114	0xbe82774b	-0.25481638
115	0x3e45ef17	0.19329487
116	0xbd26d198	-0.040727228
117	0xbe20a6f6	-0.1568869
118	0xbdd8c009	-0.10583503
119	0x3e2ddadc	0.1697802
120	0xbc9ce387	-0.019151462
121	0xbdda14de	-0.10648511
122	0x3e809674	0.25114787
123	0x3dc9db13	0.09856238
124	0xbcc9e4da	-0.024645258
125	0xbdbe4c02	-0.09291841
126	0xbdd17b62	-0.102286115
127	0xbc2379dc	-0.009977784
128	0x3e2f131d	0.17097135
129	0x3e184fcb	0.14874189
130	0xbd313851	-0.043266598
131	0xbc03feba	-0.008056337
132	0xbe8ff80a	-0.28118926
133	0xbe4230c8	-0.18963921
134	0xbb901143	-0.004396589
135	0x3e3db7dc	0.18527168
136	0x3ebec21f	0.37257478
137	0xbe8e4ff6	-0.2779538
138	0xbe2543ab	-0.16139095
139	0xbe52673a	-0.2054719
140	0xbe3f9164	-0.18707806
141	0xbd77930a	-0.06044296
142	0x3e3f243e	0.18666169
143	0xbd2702eb	-0.040774267
144	0xbd457d4f	-0.048215207
145	0x3e365b3c	0.1780824
146	0xbe1e0a5c	-0.1543364
147	0xbc0c4208	-0.008560665
148	0x3e52769c	0.20553058
149	0x3e6dcd5a	0.23222867
150	0xbc533232	-0.012890385
151	0xbe2ff819	-0.17184485
152	0x3ed02ef4	0.40660822
153	0xbcb98721	-0.022647442
154	0x3e6f1fd3	0.23351984
155	0x3e887ac8	0.26656175
156	0xbd236d28	-0.03989902
157	0x3e7acc52	0.24492005
158	0xbe11e023	-0.14245658
159	0xbdddb910	-0.108263135
160	0x3ee2720b	0.44227633
161	0xbd502bd1	-0.050823037
162	0xbe381d64	-0.17979962
163	0xbda922f2	-0.082586184
164	0xbc6f7e66	-0.014617538
165	0x3efcd293	0.49379405
166	0xbe697e30	-0.22802043
167	0xbc4f1e5e	-0.012641517
168	0xbc24cc5a	-0.010058487
169	0x3e7499d9	0.23886813
170	0xbe84eb1e	-0.2596063
171	0xbdc34b17	-0.095358066
172	0xbc8caece	-0.017173197
173	0x3ef54c2d	0.4790968
174	0xbe806279	-0.2507513
175	0xbc65a410	-0.014016166
176	0xbc4f923c	-0.012669142
177	0x3e86996f	0.26288936
178	0xbe886564	-0.26639855
179	0xbdd8ac86	-0.10579781
180	0xbd157d0d	-0.03649621
181	0xbe1d3b38	-0.15354621
182	0xbc806877	-0.015674813
183	0xbc9d6ae9	-0.019216018
184	0xbe3ed742	-0.18636802
185	0x3e4ee1fb	0.20203392
186	0xbbf30136	-0.007415916
187	0xbdd685f1	-0.10474766
188	0x3e16e686	0.14736375
189	0xbc6837ab	-0.0141734285
190	0xbd06fb88	-0.032954723
191	0xbe395d99	-0.18102111
192	0xbc86e987	-0.016468776
193	0x3f0ba120	0.5454273
194	0xbe5bee29	-0.2147757
195	0xbc1469a5	-0.009058391
196	0xbc2a189c	-0.010381844
197	0x3ea3c6af	0.3198752
198	0xbe67ab24	-0.22623879
199	0xbdafa607	-0.08576589
200	0xbe091501	-0.13386919
201	0xbd9ab50a	-0.07554062
202	0xbc586e0d	-0.013209832
203	0xbde36f14	-0.11105171
204	0xbe18139e	-0.14851233
205	0xbbddb7ce	-0.006766296
206	0x3ea9157b	0.330242
207	0xbe4d01ed	-0.20020266
208	0xbd8d100d	-0.06887827
209	0xbcab19ce	-0.020886328
210	0xbda3b4cd	-0.079934694
211	0xbd55cbcb	-0.052196305
212	0xbcb35ce7	-0.021894885
213	0xbe91db32	-0.28487545
214	0x3f1b6ed3	0.6071598
215	0xbca34129	-0.019928532
216	0xbd6bf730	-0.057608783
217	0xbd66faaa	-0.056391396
218	0xbe0e09b0	-0.13870883
219	0xbc60299b	-0.0136817945
220	0xbe382aed	-0.17985125
221	0x3e66cd47	0.22539245
222	0xbc423bcd	-0.011855078
223	0xbdd348c5	-0.10316614
224	0xbd622121	-0.055207375
225	0xbde37fd8	-0.11108369
226	0xbc3f9056	-0.011692127
227	0xbe54fcc6	-0.2079955
228	0x3ea0a736	0.31377572
229	0xbd8572be	-0.06516026
230	0xbdcb78ed	-0.09935174
231	0xbbf3bb26	-0.0074380813
232	0x3df5523f	0.11978578
233	0x3e80c372	0.25149113
234	0xbdeb6e96	-0.11495702
235	0xbe608a2c	-0.21927708
236	0xbc3cbfec	-0.011520367
237	0xbdc115d1	-0.09427989
238	0xbe25138b	-0.16120736
239	0xbc5a0240	-0.0133062005
240	0xbe81a01c	-0.25317466
241	0x3eca3eac	0.3950094
242	0xbd34abcb	-0.044109147
243	0xbd7b7ce2	-0.061398394
244	0xbc4c81bd	-0.012482104
245	0xbdd3be1c	-0.10338995
246	0xbe046802	-0.12930301
247	0xbc08d821	-0.00835231
248	0x3e7dd5b4	0.24788553
249	0xbe8194fa	-0.25308973
250	0xbd9c3195	-0.076266445
251	0xbbc1debc	-0.0059164446
252	0xbdbeba5f	-0.09312891
253	0xbe0be999	-0.13663329
254	0xbc07406a	-0.008255104
255	0xbe7e0c54	-0.2480939

bias f4 [200]
0	0xbc02c1bf	-0.007980763
1	0x3df04bb1	0.11733187
2	0xbd2c5fd3	-0.042083573
3	0x3c9b0ab9	0.018926011
4	0x3dc99ca9	0.09844334
5	0xbd879506	-0.06620221
6	0xbc0bf854	-0.008543093
7	0x3d66a771	0.05631203
8	0x3d044a98	0.0322977
9	0xbd8529f9	-0.06502146
10	0xbdf7d843	-0.121017955
11	0x3caec46d	0.021333897
12	0x3da367a8	0.07978755
13	0x3d39acf1	0.045330945
14	0xbd04d192	-0.032426424
15	0x3d4f0c28	0.050548702
16	0x3dbed002	0.09317018
17	0x3e6545b6	0.22389874
18	0xbd44c997	-0.048043814
19	0xbd8b4c56	-0.06801669
20	0xbdaae6a0	-0.083447695
21	0x3db85463	0.090004705
22	0x3d30b00a	0.043136634
23	0x3d25f4f4	0.04051681
24	0x3d260326	0.040530346
25	0xbca31534	-0.019907571
26	0x3b001bf1	0.0019547904
27	0xbe141b0e	-0.14463446
28	0x3e1be2a6	0.15223178
29	0xbbd0e3f7	-0.006374832
30	0x3c3388b9	0.01095789
31	0x3df36150	0.11883795
32	0xbd16132b	-0.036639374
33	0xbc7326e0	-0.0148408115
34	0x3c2ba649	0.010476657
35	0xbccc2eb4	-0.024924614
36	0x3dbb764e	0.09153424
37	0x3cb898b5	0.022533754
38	0xbe1151e0	-0.14191389
39	0xbe094230	-0.13404155
40	0xbd7dafa1	-0.06193507
41	0x3d93e058	0.072205245
42	0x3d18f9c2	0.037347563
43	0x3d2b79db	0.041864257
44	0xbd14eeea	-0.03636066
45	0x3dac4da4	0.08413246
46	0x3dc02c34	0.09383431
47	0xbb117d47	-0.0022199915
48	0x3d00b40d	0.03142171
49	0xbd3e6127	-0.04647937
50	0x3d0dc10b	0.03460793
51	0x3b0bef23	0.0021352253
52	0xbd3c5fad	-0.04598968
53	0x3c4a33a3	0.012341413
54	0x3d95c48e	0.073128805
55	0x3d6a7472	0.057239957
56	0xbce6871e	-0.0281406
57	0x3db07798	0.08616561
58	0xbda21738	-0.07914585
59	0x3cf5e885	0.0300181
60	0xbd8f6a29	-0.0700267
61	0x3d8dcc30	0.06923711
62	0x3e2cac64	0.16862637
63	0x3d408e80	0.0470109
64	0xbe02928b	-0.12751214
65	0x3da703ed	0.08155046
66	0x3e16cf0a	0.14727417
67	0x3e555b2e	0.20835564
68	0x3e33bae0	0.17551756
69	0x3e132d5e	0.14372775
70	0x3bc2e5f2	0.005947822
71	0xbd9a66e3	-0.07539155
72	0xbdf0021f	-0.117191546
73	0x3d87cb8f	0.066306226
74	0x3e0cef3a	0.13763133
75	0xbdd76b35	-0.10518495
76	0x3cab7909	0.020931737
77	0xbcdddf2d	-0.027083958
78	0xbdc064dd	-0.09394238
79	0xbbcbbe22	-0.006217734
80	0xbcf44253	-0.029816782
81	0xbb52a7ff	-0.003214359
82	0x3e0f4427	0.13990842
83	0xbce1b3bd	-0.027551526
84	0xbb93357c	-0.00449246
85	0x3d8baec4	0.06820443
86	0x3d510263	0.051027667
87	0x3da27a9e	0.079335436
88	0xbcfbe3e5	-0.030748317
89	0x3d62fe4c	0.055418298
90	0xbd8b17df	-0.067916624
91	0xbbc83dfa	-0.006110904
92	0xbc601e46	-0.013679093
93	0x3d39a049	0.045318875
94	0xbc62c805	-0.013841634
95	0x3c0b4394	0.008499999
96	0xb7a55d94	-1.9713108e-05
97	0xbd8f8bcf	-0.07009088
98	0x3d927157	0.07150524
99	0x3de21c33	0.11040535
100	0x3e2a5fe8	0.16638148
101	0x3c2880e1	0.010284633
102	0xbdc3f49c	-0.0956814
103	0xbcb3661a	-0.021899272
104	0xbd3d610b	-0.046235126
105	0x3ce2c88c	0.027683519
106	0xbd498fbf	-0.049209353
107	0x3cc21e40	0.023696065
108	0xbd66757e	-0.056264393
109	0xbd6ed7f6	-0.058311425
110	0xbd8c56b2	-0.06852473
111	0xbdebcb5d	-0.11513398
112	0xbdc4e9b5	-0.096148886
113	0xbdcd76d1	-0.10032428
114	0xbe23c547	-0.15993224
115	0x3d019129	0.031632576
116	0xbe13613b	-0.14392559
117	0xbe00e20b	-0.12586229
118	0xbc8b6384	-0.017015226
119	0x3c4cabcc	0.012492131
120	0x3d2be850	0.041969597
121	0xbcca7339	-0.024713146
122	0xbde5d3db	-0.11222049
123	0x3cd54533	0.026033973
124	0xbdcf0d22	-0.10109927
125	0xbddc68b3	-0.10762157
126	0x3d547ec8	0.05187872
127	0x3c81a5cd	0.01582613
128	0x3d7a3dcd	0.061094094
129	0xbd82a54a	-0.06379183
130	0xbbc8086d	-0.00610452
131	0x3d8a445b	0.06751319
132	0xbd8ac24c	-0.067753404
133	0xbdeb0122	-0.114748254
134	0xbd3d9635	-0.046285827
135	0x3dd4cd9a	0.10390778
136	0x3d60b6bb	0.054861765
137	0xbd31a01c	-0.043365583
138	0x3d18dd6a	0.037320532
139	0x3e886b0c	0.2664417
140	0x3da3c823	0.079971574
141	0xbc95d668	-0.018290713
142	0x3d904146	0.070437
143	0x3d48f162	0.049058326
144	0xbdf7e5b6	-0.12104361
145	0x3c759f23	0.014991554
146	0xbbe9065d	-0.0071113543
147	0x3da44383	0.08020689
148	0xbc413b3a	-0.011793906
149	0xbdeab39c	-0.11460039
150	0xbd840cb0	-0.064477324
151	0x3d0c868a	0.034307994
152	0xba1a6f90	-0.0005891258
153	0x3df82596	0.12116544
154	0xbdb02dc6	-0.086024806
155	0xbcf0a174	-0.029373862
156	0xbc720492	-0.014771597
157	0xbcacf9e0	-0.021115243
158	0xbe401ebc	-0.18761724
159	0xbdae67f6	-0.08515923
160	0x3d2d0510	0.042241156
161	0xbe088df6	-0.13335404
162	0x3bae8164	0.005325483
163	0x3c85e43c	0.016344182
164	0xbd37d1d6	-0.04487785
165	0xbcdafac3	-0.0267309
166	0xbd88da86	-0.06682305
167	0xbda2aab4	-0.07942715
168	0x3c3d1f04	0.011543039
169	0x3e103fc6	0.14086828
170	0xbd743b3c	-0.059626803
171	0x3dba2aba	0.09090181
172	0x3da58560	0.0808208
173	0x3d77770b	0.060416263
174	0xbd420cc7	-0.047375467
175	0xbdd92d23	-0.10604312
176	0xbd6a640b	-0.057224315
177	0xbc8d435c	-0.017244034
178	0xbe0e45e3	-0.13893847
179	0xbda8dcaa	-0.08245213
180	0xbcbd5d8e	-0.0231159
181	0x3da3e6a4	0.080029756
182	0xbd15a5ca	-0.036535062
183	0xbd2ff4e5	-0.04295816
184	0xba197f4a	-0.00058554544
185	0xbd3ce0f8	-0.046112984
186	0xbde7c0c1	-0.11316062
187	0x3d7d8025	0.061889786
188	0x3dc2e923	0.095171236
189	0xbe05cc29	-0.13066162
190	0xbd1e218b	-0.038606208
191	0xbb3c76c1	-0.0028757306
192	0xbd90b553	-0.07065835
193	0xbda4542b	-0.08023866
194	0x3bf1dab7	0.007380809
195	0xbd960c66	-0.073265836
196	0xbd5d8e7f	-0.054090973
197	0xbde436a7	-0.111432366
198	0x3e07bf60	0.13256598
199	0x3c05204b	0.008125375
